…
te></li><li>最后训练完毕之后，准备进行预测的时候，前面卷积层的参数依旧是按照上面的方式从存放所有预训练参数的字典中获取，而修改了的进行训练了的层则需要从训练完毕的参数文件中进行读取，这样才能进行预测：<br><img src= "/img/loading.gif" data-src="/2019/06/04/transfer-learning/1559626588927.png" alt="Alt text"></li></ol></blockquote><h3 id="3-2-VGG16各层参数的shape以及数目"><a href="#3-2-VGG16各层参数的shape以及数目" class="headerlink" title="3.2 VGG16各层参数的shape以及数目"></a>3.2 VGG16各层参数的shape以及数目</h3><pre><code>————————————————————————————————————————————————————————————Layer                   Output Shape               Param #============================================================conv1_1_weights         (3, 3, 3, 64)              1728conv1_1_bias            (64,)                      64————————————————————————————————————————————————————————————conv1_2_weights         (3, 3, 64, 64)             36864conv1_2_bias            (64,)                      64————————————————————————————————————————————————————————————conv2_1_weights         (3, 3, 64, 128)            73728conv2_1_bias            (128,)                     128————————————————————————————————————————————————————————————conv2_2_weights         (3, 3, 128, 128)           147456conv2_2_bias            (128,)                     128————————————————————————————————————————————————————————————conv3_1_weights         (3, 3, 128, 256)           294912conv3_1_bias            (256,)                     256————————————————————————————————————————————————————————————conv3_2_weights         (3, 3, 256, 256)           589824conv3_2_bias            (256,)                     256————————————————————————————————————————————————————————————conv3_3_weights         (3, 3, 256, 256)           589824conv3_3_bias            (256,)                     256————————————————————————————————————————————————————————————conv4_1_weights         (3, 3, 256, 512)           1179648conv4_1_bias            (512,)                     512————————————————————————————————————————————————————————————conv4_2_weights         (3, 3, 512, 512)           2359296conv4_2_bias            (512,)                     512————————————————————————————————————————————————————————————conv4_3_weights         (3, 3, 512, 512)           2359296conv4_3_bias            (512,)                     512————————————————————————————————————————————————————————————conv5_1_weights         (3, 3, 512, 512)           2359296conv5_1_bias            (512,)                     512————————————————————————————————————————————————————————————conv5_2_weights         (3, 3, 512, 512)           2359296conv5_2_bias            (512,)                     512————————————————————————————————————————————————————————————conv5_3_weights         (3, 3, 512, 512)           2359296conv5_3_bias            (512,)                     512————————————————————————————————————————————————————————————fc6_weights             (25088, 4096)              102760448fc6_bias                (4096,)                    4096————————————————————————————————————————————————————————————fc7_weights             (4096, 4096)               16777216fc7_bias                (4096,)                    4096————————————————————————————————————————————————————————————fc8_weights             (4096, 1000)               4096000fc8_bias                (1000,)                    1000————————————————————————————————————————————————————————————============================================================Total params: 138357544</code></pre><p>由此可见，<strong>vgg16.npy</strong>文件很大不是没有原因的。</p><h2 id="4-如何固定住参数"><a href="#4-如何固定住参数" class="headerlink" title="4. 如何固定住参数"></a>4. 如何固定住参数</h2><blockquote><p>首先需要明确一点的是，<strong>tf.Optim
…
